ppo_actor.pth (torch, 20572 bytes, 5 tensors)

layer1.weight f4 [64, 3]
000000 98 71 0e 3f 3a 03 36 bf 76 d0 59 be 72 79 55 bf
       0.5564208 -0.71098673 -0.21270928 -0.83388436
000010 8a d8 d7 3e 6d 6c 5a bd 9a 77 d0 3e c3 04 61 3e
       0.42157394 -0.05332606 0.4071625 0.21974473
000020 94 cb 28 3e d9 f6 b8 bd 1a 0d 1f 3f ad e2 53 3e
       0.16483909 -0.090314575 0.62129366 0.20691939
000030 cf 25 00 3e 2c f2 3c 3e 9f 33 14 3f c0 e6 41 3f
       0.12514423 0.18451756 0.5789127 0.7574272
000040 30 1c 14 3f 2c 17 4a be b1 bb ed be 07 84 c2 3e
       0.5785551 -0.19735402 -0.4643226 0.37991354
000050 ae ec af be 42 10 0b bf 15 98 8d be cd 59 ee 3d
       -0.3436026 -0.5432168 -0.27655092 0.11638222
000060 35 2c 3d 3f 2c bc d4 be d7 2e a9 be 27 99 c5 be
       0.7389558 -0.41549814 -0.33043548 -0.38593408
000070 9c 46 2d 3e 9d 5e 1e be dd b3 21 3f 77 df 3d 3f
       0.16921467 -0.1546578 0.63165075 0.74169105
000080 4c e1 df 3e d5 19 ff 3e 86 65 f6 3d cf 8b 0b 3e
       0.43726575 0.49824396 0.12031083 0.13627551
000090 3e 1a 67 3e 80 b9 25 3e 23 b4 03 3e 79 a3 9a 3e
       0.22568604 0.16184044 0.12861685 0.30202845
0000a0 b9 8c 0a 3f cf 0b 8b 3e d1 59 b5 3e ab 65 6c bf
       0.54120976 0.27157447 0.35420087 -0.92342633
0000b0 aa 65 f0 be 00 62 0e bf 73 03 0b be 62 ff 37 bd
       -0.46952564 -0.55618286 -0.13575535 -0.044921286
0000c0 59 1e fc 3e 9d fa 7b bf 37 5a 99 be be 03 9a 3c
       0.49241903 -0.9842928 -0.2995164 0.018800613
0000d0 45 9e 25 bf 06 a7 00 bf 8d a0 14 3f b0 be 17 bf
       -0.64694625 -0.5025486 0.5805748 -0.5927534
0000e0 8d c6 97 3d d2 af ba be ca 85 0a 3f 98 06 6b 3d
       0.074109174 -0.36462265 0.54110396 0.057379335
0000f0 5d 44 9f 3e ed f7 cb 3e 2f d9 16 bf a0 bf 2e 3e
       0.31106845 0.3983759 -0.58925146 0.17065287
000100 0e 75 15 3f d4 fb 9b be 98 52 2f 3f 5e 85 07 3e
       0.58381736 -0.30465567 0.68485403 0.1323447
000110 d2 80 ab 3e 24 1a ea be 72 72 0c bd af 7b 05 3f
       0.3349672 -0.4572307 -0.03428883 0.5214185
000120 68 a3 af 3d 2a 16 0c 3e a9 00 c1 3e f6 f0 fe be
       0.08576089 0.1368033 0.37695816 -0.49793214
000130 c3 95 15 3e 1b 8b 12 3f 51 80 d3 be d2 0c fb 3e
       0.14607911 0.5724351 -0.41308835 0.4903322
000140 06 2c 8b be 7b 94 53 3f 18 de c8 3e 39 a9 26 be
       -0.27182025 0.8264844 0.39231944 -0.16275491
000150 b2 25 2e bf 73 a8 f4 3d 58 2c d2 be cd d1 ce 3e
       -0.6802627 0.11946192 -0.41049457 0.4039444
000160 d6 77 37 3d 79 fc aa 3e 22 18 0a be d0 11 32 3e
       0.04479202 0.33395746 -0.13485768 0.17389607
000170 8f 51 08 bd 8f 0c e4 3e 1e f7 cc be 33 fc 68 3e
       -0.033280905 0.4454083 -0.40032285 0.22752456
000180 60 7c 0c 3f b0 3e 4a bf f0 2b 97 be 74 3b 17 3f
       0.5487728 -0.79001904 -0.2952571 0.59075093
000190 0e c3 1c 3f 81 df 5b 3e 1f 3a 3e 3f c6 6d 08 3f
       0.6123513 0.21471979 0.74307436 0.532925
0001a0 a0 69 8c 3d 73 a0 c2 3e e2 91 4c be d2 f5 d6 3e
       0.06856084 0.38013038 -0.19977525 0.4198442
0001b0 69 9d fe bc 81 35 09 3e 76 10 aa be 14 60 ee 3e
       -0.031080918 0.13399316 -0.33215684 0.46557677
0001c0 f7 ed 5b be 09 08 01 3f a1 da b9 3e 70 d9 31 bf
       -0.21477495 0.50402886 0.36299613 -0.6947241
0001d0 a3 70 db bd 98 13 35 3f b7 53 0d 3f 76 50 0c 3f
       -0.10714843 0.7073302 0.55205864 0.54810274
0001e0 d0 af eb be ba 36 d6 3e f1 c5 37 3e 6a 32 b8 be
       -0.46032572 0.41838628 0.17946602 -0.35975963
0001f0 ac f9 59 3e e0 fb 11 3f 77 d7 c5 be 93 b7 07 3f
       0.21286649 0.57024956 -0.3864095 0.5301449
000200 83 cb 55 3e e0 e8 f6 be 7b 78 6a be 07 f5 ac 3e
       0.20878415 -0.48224545 -0.22897522 0.3378069
000210 40 a0 b1 3e 8f 06 b1 bd 91 33 0e 3e 72 6b 3c 3e
       0.34692574 -0.08643829 0.13886859 0.18400362
000220 b4 17 03 bf 6f e1 06 3f 6c 07 ab 3e 04 93 16 bf
       -0.51208043 0.52687734 0.334041 -0.5881808
000230 6e 2f 07 bf 76 df 83 3d 74 ba eb be 93 f9 03 bf
       -0.52806747 0.06439106 -0.4604069 -0.51552695
000240 5c 56 9c be 4a 1e a4 be 49 a2 15 bf 4a 19 11 be
       -0.30534637 -0.3205436 -0.5845075 -0.14169803
000250 b2 e8 3e 3f 93 82 1a 3e fc b6 98 3c 9b e0 bb bd
       0.74573815 0.15088873 0.018641941 -0.091736995
000260 30 3d 9f 3e 48 c8 0b 3f cf bf 4b bf ec 8c 81 be
       0.3110137 0.5460248 -0.7958955 -0.25302827
000270 00 df 14 3d 2a f9 f2 be 44 31 98 be c7 52 90 be
       0.036345482 -0.47455722 -0.29725087 -0.28188154
000280 26 76 d0 be 64 8b e9 be ec e7 a0 3e 47 ee 1a 3e
       -0.4071514 -0.4561416 0.31426942 0.15129958
000290 9f 45 b7 3d f3 48 53 bf f9 75 a2 3e 9c da 07 bf
       0.08948826 -0.82533187 0.3173063 -0.53067946
0002a0 19 03 df be c7 de af be c4 31 ba 3e ed e2 c0 be
       -0.4355705 -0.34349653 0.36366093 -0.3767313
0002b0 98 57 b3 3e 59 b4 8f 3d 26 f5 8a bc f6 91 ce 3e
       0.35027766 0.070168205 -0.016962599 0.40345734
0002c0 b1 7c 0c 3e 14 9e e9 be e1 6e ff 3d 23 57 88 3e
       0.13719441 -0.45628417 0.1247232 0.2662898
0002d0 7c a7 1a bf b4 7b 47 be 4a c6 08 3f a7 c9 d9 be
       -0.6041181 -0.19480783 0.53427565 -0.4253666
0002e0 a9 f7 25 be e4 d3 ec 3e 2b 13 d9 3d d9 00 94 be
       -0.16207756 0.4625541 0.10599359 -0.28906897
0002f0 bc dc 1b 3e 7c f5 ca bd 75 bf 1d bf 44 29 b7 3d
       0.15220922 -0.09910104 -0.61620265 0.08943418

layer1.bias f4 [64]
000000 d4 c0 5f be bc f5 1e 3f bf f8 23 be c8 70 05 bf
       -0.21850902 0.6209371 -0.16012858 -0.52125216
000010 b8 b5 f7 3e bb db 45 bd b6 5d 1c be 78 cb 76 3e
       0.48380828 -0.048305254 -0.15270123 0.24101055
000020 5b 96 f2 3e 89 73 4f bd c6 4a e0 3e 90 1b 2e be
       0.47380337 -0.050647292 0.43807048 -0.17002702
000030 b2 96 fc 3e 30 a3 78 bd f3 1b 0e 3e eb ba 9d 3e
       0.4933372 -0.060702503 0.1387785 0.3080667
000040 7d a0 ef bd 01 17 37 3e d2 41 c4 3e ea 1c 8d 3d
       -0.117005326 0.17879869 0.38331467 0.068902805
000050 bd 0d ce 3e 1c 0b a2 3e 78 10 56 3b b3 f2 0c 3e
       0.40244856 0.316491 0.0032663625 0.13764457
000060 0d 99 7d 3e ec af 13 3f 38 41 1b 3f 35 98 a5 3e
       0.24765415 0.5769031 0.6064639 0.32342687
000070 e0 06 c9 3e c7 92 c0 be 19 69 00 bf 85 96 c5 be
       0.39263058 -0.37611982 -0.50160366 -0.385914
000080 16 dc eb 3d db 3b 3c bd 0e 2b 0f 3f dc 4d 84 be
       0.115165874 -0.04595552 0.5592507 -0.25840652
000090 34 7d b8 3e 9e 5f f8 bd 53 2e 14 3e e0 f1 ca be
       0.36033022 -0.121276125 0.14470796 -0.3963766
0000a0 db 3c 1a 3e ab 32 02 3f 6c a4 bd be 3e 5c 1a 3f
       0.15062277 0.50858563 -0.37039506 0.60297
0000b0 02 c5 15 3f 95 9e 7d be 65 bb 11 3a 1c 38 18 3e
       0.58503735 -0.24767525 0.0005559235 0.14865154
0000c0 ca 69 df be 98 a0 ea be 30 58 16 bf a0 32 c8 3d
       -0.43635398 -0.45825648 -0.58728313 0.09775281
0000d0 45 eb 17 3e e7 04 d2 3e a6 f1 1b be 4f ac 87 3d
       0.14835842 0.41019365 -0.152289 0.06624662
0000e0 52 d9 26 3f 70 9e 84 be af e5 d5 3e d2 a7 82 3e
       0.65175354 -0.25902128 0.41776797 0.25518662
0000f0 0a e6 bf be 58 37 6a be db e3 d1 be 5d f5 f2 3e
       -0.37480193 -0.22872674 -0.40994152 0.47452822

layer2.weight f4 [64, 64]
000000 08 41 53 bb 72 ce d7 bc d9 49 99 3d 74 8d 43 bd
       -0.0032234807 -0.026343558 0.074847884 -0.047742322
000010 56 76 a5 bd 88 eb af bd 7e 80 a9 3d 53 25 38 3d
       -0.080792114 -0.08589846 0.08276461 0.04495747
000020 aa 3b 5d bc 3f d5 2a 3e 8a 3d 81 3d 1a 9e 03 3e
       -0.013502995 0.1668291 0.06310566 0.1285328
000030 3d 8f a5 bc 31 09 47 3e fb c8 99 bd 87 1f 69 3e
       -0.020209903 0.194371 -0.07509037 0.22765933
000040 3c 8f 88 bd b1 2a b3 bc 24 e9 e8 3b 25 4a 1c 3c
       -0.06667945 -0.021870943 0.0071078707 0.009539162
000050 e3 b9 88 3d a3 66 16 3e 3e f4 28 3e 5f e8 a7 3c
       0.0667608 0.1468759 0.16499421 0.020496545
000060 33 69 0f 3d b3 dc 58 bd d1 50 05 3e c3 da 0e be
       0.035012435 -0.05294485 0.1301911 -0.13950638
000070 96 4d 58 bd 10 10 01 3e 2c 6a 68 bd 18 0f e0 3b
       -0.052808367 0.12603784 -0.05674188 0.006837737
000080 ea eb ae bd c8 d8 b2 3d d3 1e f0 3d af 68 b3 3c
       -0.08541091 0.08732754 0.11724629 0.021900503
000090 3a 99 9a 3d 7d 18 19 bd d0 72 cc bd 84 63 35 3e
       0.07548757 -0.03737687 -0.09982836 0.17713743
0000a0 99 11 c3 3b 8b e4 a0 bb 92 8a c8 bd 75 51 f5 bc
       0.0059530255 -0.004910057 -0.09792055 -0.029946068
0000b0 43 17 c1 3d 3f 60 d8 bd f7 7e 83 bd 01 be a2 bd
       0.09428265 -0.105652325 -0.06420701 -0.079463966
0000c0 9c f0 97 3d 82 f0 30 be 77 33 18 3d e3 5e d5 3c
       0.074189395 -0.17279246 0.037158456 0.026046222
0000d0 ac 0e d5 bc 51 35 d7 3d bc 71 ec 3d 81 9f 34 3e
       -0.026007973 0.10508216 0.115451306 0.17638971
0000e0 81 7d 8d 3d 67 8d 15 bd e3 c5 7a bd 14 87 7d bd
       0.069087036 -0.036511805 -0.061223876 -0.0618964
0000f0 28 bd 8b 3c 90 a4 67 bd f3 8f 0b bd 34 31 ea bd
       0.01705797 -0.056553423 -0.034072828 -0.11435166
000100 37 13 fb 3c c3 ce 90 bd 0c 97 98 bd c1 32 49 3d
       0.03064881 -0.07070687 -0.07450685 0.04912067
000110 94 27 01 be d4 41 5b bc d7 9a e8 bc 53 6b be 3d
       -0.12612754 -0.013382394 -0.028394146 0.09297814
000120 e8 69 93 3d 45 2a e7 bd ea de b2 3d f3 a1 19 3d
       0.071979344 -0.11287359 0.08733924 0.037507962
000130 d2 1b cb 3d 17 2b bc ba 21 01 fa 3c d6 57 bc 3c
       0.09917416 -0.0014356103 0.030518116 0.022991102
000140 d5 e5 d1 bd 0f 6c a7 bc 03 fc e7 bc 11 c2 80 3d
       -0.10248915 -0.020437269 -0.02831841 0.06287015
000150 a4 90 c4 bd fe 55 cd 3b 63 2a 4d bd 9a 3b 66 39
       -0.095979005 0.0062663546 -0.05008925 0.00021956713
000160 30 92 19 3d 31 2f 89 39 1c 20 b1 3d 8f 84 45 bd
       0.03749293 0.00026165837 0.086487025 -0.04822212
000170 79 f5 d9 bd 51 5f a0 bd 60 1c ab bd 0b 02 97 3d
       -0.10642523 -0.0783068 -0.083550215 0.073734365
000180 a6 2e 52 bd 1f f5 01 bd 8c c8 55 3d a7 ed eb 3d
       -0.05131402 -0.031727906 0.05219321 0.11519938
000190 17 22 25 bd 0c ae 0e bd fc a0 0e 3d da ad 88 3d
       -0.040315714 -0.034833953 0.034821495 0.066737846
0001a0 4a d8 64 3d 8c a3 c3 3d 17 f7 46 ba 3d 1d 06 be
       0.05587033 0.095526785 -0.000758992 -0.13097091
0001b0 6f 7b 6d bd 20 28 f3 bd 33 09 42 3d 00 12 31 bd
       -0.057979044 -0.118728876 0.047372054 -0.043230057
0001c0 d9 27 13 be 10 1c 73 3c 9e 6a 96 bd 78 24 15 be
       -0.1437067 0.014838234 -0.07344554 -0.14564693
0001d0 b7 cd a4 bd 58 ae 95 bd 5c 11 80 3d 99 42 d4 bb
       -0.080470495 -0.07308644 0.06253311 -0.0064776656
0001e0 6c f5 69 bd 69 36 ef bd bf ed fc bd a0 2f e7 bd
       -0.05711882 -0.116803 -0.12350034 -0.112883806
0001f0 18 b5 04 be e9 b3 ef 3c 36 6a 65 3d 76 fe 03 be
       -0.12959707 0.029260593 0.056009494 -0.12890038
000200 d7 42 e2 3d 85 14 a9 bd 06 1b 8f bd 68 6f 00 3e
       0.11047905 -0.08255867 -0.06987576 0.12542498
000210 47 10 44 3d 94 06 a2 3d e2 86 a0 bc 8d 67 19 3e
       0.047867086 0.07911411 -0.019595567 0.14980908
000220 20 af 24 bd e6 64 69 3d 5c 28 59 bd bd e1 9d bd
       -0.040206075 0.05698099 -0.053017005 -0.07709072
000230 e1 2e a5 3c a3 bd d0 3c 48 fa cb 3d ab 37 5b 3d
       0.020163955 0.02548105 0.09959847 0.053519886
000240 21 7f 19 bc 16 c9 64 bd 07 21 65 3c 54 84 4a 3e
       -0.009368689 -0.055855833 0.013984925 0.19777042
000250 ce ad e0 bc b6 1a 04 bd 04 4b e1 bc 15 94 a4 bc
       -0.027426627 -0.032252036 -0.02750159 -0.020090142
000260 d8 ff 18 bd a1 5e ce 3d 3e c5 83 3d c2 c5 c4 3c
       -0.037353367 0.10076643 0.06434105 0.02402008
000270 2c 44 37 3d 63 53 98 3d c8 52 7e 3d 0d 2b 8f 3d
       0.04474275 0.0743778 0.062090665 0.06990633
000280 06 28 ff 3d d2 57 0d be 28 b3 e8 3d 03 3d c6 3d
       0.12458806 -0.13803032 0.11362296 0.09679606
000290 7e 96 ba bc c9 30 83 3c 50 9d 8a 3e 0c fb 1f be
       -0.022776838 0.016014474 0.27073145 -0.1562311
0002a0 a0 4a f8 bc 94 35 22 bb 98 a7 8e bd 65 a4 2c 3e
       -0.030309021 -0.0024751173 -0.0696556 0.16859587
0002b0 3d dc 16 3e c7 ee 83 bc be be b9 3d d0 32 02 3d
       0.14732452 -0.016105069 0.09069584 0.03178674
0002c0 e1 25 a9 3d 7a 62 41 3e 14 6c 8c bd ab 64 52 bb
       0.08259178 0.18885222 -0.06856552 -0.003210346
0002d0 a6 45 a0 3a 17 cd 8f 3d b6 08 18 be a7 f9 30 3d
       0.0012227788 0.0702154 -0.14847073 0.043206837
0002e0 a2 bc c7 3d 19 8a b1 3d d6 e8 8a bd 48 89 cc 3c
       0.09752776 0.08668918 -0.06782691 0.024967805
0002f0 8a a0 95 bc 03 36 eb 3d 26 11 00 3c 54 16 ee 3d
       -0.018265028 0.11484911 0.0078165885 0.116253525
000300 67 0a b5 bd 33 93 c0 3d a5 04 0d 3e bd e3 b6 bd
       -0.08839875 0.09403076 0.13771303 -0.089301564
000310 6d c3 99 3d ce d6 06 be 3e 4b e5 3d e5 a5 26 bd
       0.07507978 -0.13167879 0.11195992 -0.040685553
000320 3d 5c da 3c 25 b5 60 bd 92 90 34 3e f8 f2 7d 3e
       0.02665531 -0.054860253 0.17633274 0.24799716
000330 93 a7 c7 bd 8f 21 74 bb 81 ba c8 bc 22 09 4e 3d
       -0.09748759 -0.0037251448 -0.024502994 0.05030168
000340 82 e7 bc bd 1e a8 d9 ba 68 f0 c2 3c ce 56 b9 bc
       -0.09223844 -0.0016605889 0.023796275 -0.0226244
000350 2a 1d ce bb 6b 98 1e bd 08 35 1e 3e ac a3 3a 39
       -0.0062900977 -0.038719576 0.15449917 0.00017799315
000360 8a 05 01 bd d8 36 c4 bc b6 54 25 3d e0 4d 77 3d
       -0.031499423 -0.023951933 0.04036399 0.060377
000370 d2 95 14 3e fd ff eb bc 58 39 88 3c 76 9a c2 3c
       0.14510277 -0.028808588 0.016628906 0.023755293
000380 42 57 01 be 6b 4b 3b 3d 59 d5 0a 3e 91 f5 b5 3d
       -0.12630942 0.04572622 0.13557948 0.08884729
000390 18 a1 f4 3d 13 d6 31 3d f3 4b 8e be 67 be 7b bc
       0.11944789 0.043417048 -0.2779232 -0.01536522
0003a0 88 6d 7a 3d c4 3d a3 3b 36 1d 9d bc a8 33 f4 bd
       0.061139613 0.0049817283 -0.019178968 -0.11923915
0003b0 51 f7 00 be 28 3c a9 bd 2f 91 10 be 97 f3 d9 3d
       -0.12594344 -0.08263427 -0.14117883 0.10642164
0003c0 d6 23 c6 3d a8 6f 69 be 93 eb 68 3a ad 2a b6 bd
       0.09674804 -0.227965 0.0008885201 -0.088948585
0003d0 bd a9 98 3c 78 ee 0a 3e 03 27 89 3d 61 e5 cf 3c
       0.018635625 0.13567531 0.06696894 0.025377931
0003e0 de da c1 bd 97 57 59 bd f9 35 ca ba 32 9f e9 3c
       -0.09465574 -0.053062048 -0.0015427462 0.028518293
0003f0 fe 00 90 bd b0 2d 0f be 36 cf 15 3e e6 ac 17 bc
       -0.07031439 -0.13982272 0.14629826 -0.009257531

layer2.bias f4 [64]
000000 4c 96 ad bc 47 8c d0 3b ff e7 02 bd 41 21 64 3d
       -0.021189831 0.0063643786 -0.03195953 0.055695776
000010 80 9e 8c 3b 55 a3 20 3c 42 3b e6 3d 62 f3 59 bc
       0.0042913556 0.009804566 0.11241771 -0.013302656
000020 4c 65 72 bd 2f 3b 04 be 94 3d fb 3d 73 69 98 3d
       -0.059178635 -0.12913202 0.122676045 0.07441988
000030 89 ed 39 3d 36 dd 17 bd bf 33 76 bd 82 3e 23 3e
       0.045392547 -0.037076198 -0.060107943 0.15941814
000040 ee 27 02 be 54 99 2c 3e 98 ca eb 3c 1a a5 d5 bd
       -0.12710544 0.16855365 0.028783128 -0.10431881
000050 cb ac 57 3e 87 d3 ae 3d d9 56 2c 3c 14 6e 01 3e
       0.21062009 0.085364394 0.010518753 0.12639648
000060 90 5e 1e 3e f8 72 f1 3d 4a 88 17 3d 90 16 17 bd
       0.1546576 0.11789507 0.03699521 -0.03688675
000070 43 94 d6 bb 38 86 8b 3d 16 17 d3 bd 04 7d 89 bd
       -0.006548436 0.068127096 -0.10307138 -0.06713298
000080 90 9d bb bd 11 fb e0 3d e0 7b 90 bd 48 fc 15 3d
       -0.09160912 0.10985387 -0.07054877 0.036617547
000090 fe 17 ad 3d 86 df c4 3c 6c de 33 3e aa 01 7f 3d
       0.08451842 0.024032366 0.17565316 0.062257446
0000a0 e3 b8 a8 bc f7 76 5b 3e 34 5f b1 3d 93 f1 d7 bd
       -0.020595973 0.214321 0.08660737 -0.105441235
0000b0 5c a2 a0 3d c5 00 4c 3e 62 50 67 bd a6 03 f5 3d
       0.078434676 0.19922169 -0.056473143 0.119635865
0000c0 5b 40 b7 bc 01 88 9b bd 57 7a 9c b8 bd 13 d5 3c
       -0.022369554 -0.075943 -7.461447e-05 0.026010389
0000d0 e2 93 d6 bd cc 89 88 3d 14 1a d8 bd ad e9 9d bc
       -0.10477425 0.06666908 -0.10551849 -0.019276464
0000e0 a7 63 13 bd 65 c6 5b bc 2d 06 07 3d 34 3d 92 3d
       -0.035983708 -0.013414 0.032964874 0.0714058
0000f0 80 67 f2 3c 1f 39 87 bc 77 a4 af bd 68 ff 8b 3d
       0.029590368 -0.01650673 -0.08576291 0.06835824

layer3.weight f4 [1, 64]
000000 c9 dd 45 be 08 25 ac bd 84 b0 45 3d b9 99 15 be
       -0.19322886 -0.08405501 0.04826404 -0.14609422
000010 50 0a 5c 3c 94 e8 8e 3e 30 6b 0e be bc 03 20 3e
       0.013430193 0.27911818 -0.13908076 0.15626425
000020 00 5a c0 bd a4 eb a1 bd 82 cd 55 be 17 c6 d2 bd
       -0.09392166 -0.07906273 -0.20879176 -0.10291689
000030 8a 81 6f be c9 c2 04 be 4d 8e 36 be 72 29 e5 3d
       -0.23389259 -0.1296493 -0.17827721 0.11189546
000040 a9 07 94 bc a5 7e 55 3e b8 42 39 3e 2a f4 00 be
       -0.018070059 0.20849092 0.18091857 -0.12593141
000050 04 63 23 3e c4 10 f1 bd aa 6a ab 39 7d 1d 1d 3e
       0.1595574 -0.11770776 0.00032695133 0.1534328
000060 5d d6 20 3e be 39 37 be e8 cd 0a 3e 10 d2 d2 bc
       0.15706773 -0.1789312 0.1355511 -0.025734931
000070 10 eb 6f 3e 97 5e 94 bd 21 e1 2c 3c 43 e2 f8 bd
       0.23429513 -0.07244604 0.010551722 -0.12152531
000080 d8 ff de bc f2 90 96 be b2 73 90 be db 9b eb bc
       -0.027221605 -0.2940746 -0.2821327 -0.028760841
000090 c8 59 bc 3d 98 b1 2d be 84 6b e7 bd 54 f4 1c 3e
       0.09196812 -0.16962278 -0.11299804 0.15327579
0000a0 51 c1 09 be 20 2e da 3d 77 07 57 bc 4c a0 e5 bd
       -0.1345265 0.10653329 -0.013124338 -0.11212215
0000b0 fe a6 58 be 69 8a 44 3e 98 51 63 bd b8 22 c1 bd
       -0.21157452 0.19193424 -0.055497736 -0.0943045
0000c0 c9 3b ff bd 1a 60 92 3c f5 ce e4 bd 8f 6a a7 bd
       -0.12462575 0.01786809 -0.111722864 -0.08174621
0000d0 f0 73 5c 3c 56 a2 fe 3d ec 73 c5 3c 57 77 30 3d
       0.013455376 0.12433307 0.024103127 0.04308256
0000e0 2d c4 09 be 0c b0 0c be cf 17 9a bd 7b 19 0e be
       -0.13453741 -0.13739032 -0.075240724 -0.13876908
0000f0 00 1e fa 3a f5 23 15 be 3a 4d 4c be 98 a0 3f be
       0.0019082427 -0.14564498 -0.19951335 -0.18713605
