ppo_critic.pth (torch, 20582 bytes, 5 tensors)

layer1.weight f4 [64, 3]
000000 6f 76 99 bf 40 c6 6e 3e 82 3a 5f 3e 2d 0e 47 3f
       -1.1989268 0.23317814 0.21799663 0.77756006
000010 91 75 73 3f 06 ef 69 3d 43 00 5c 3e df 1e d2 be
       0.9510127 0.057112716 0.21484475 -0.41039178
000020 cc 46 53 3f d2 4c 26 3f 26 51 5a 3a 45 85 29 3f
       0.825299 0.6496097 0.0008328132 0.6621898
000030 df 13 a3 be 51 4d cb be d8 d1 28 3e a8 85 e7 bd
       -0.31851098 -0.39707425 0.16486299 -0.1130479
000040 97 9b ce 3f f8 69 2f bc 00 cd 95 bf 18 8a bd bf
       1.6141232 -0.010706417 -1.1703186 -1.4807768
000050 c5 4d 6f bd ea 81 c3 be 44 8b 34 3f aa c9 95 bc
       -0.058423776 -0.38185054 0.70525 -0.018284637
000060 c9 03 4b bf dc 80 cb be 90 12 5c 3e a6 d1 1d bf
       -0.7930265 -0.3974675 0.21491456 -0.61648023
000070 7d 78 b4 3f 81 1a 11 bb dc de 59 bf f2 6f 5b 3f
       1.409927 -0.0022141042 -0.8510568 0.8571769
000080 48 41 ab 3e 18 1e 96 3e 14 92 b4 3f 06 61 88 3d
       0.33448243 0.29319835 1.410708 0.06659131
000090 ee 27 00 bf 9f ef 2b 3f 21 7f d1 bd df 58 5f bd
       -0.5006093 0.6716251 -0.10229326 -0.054528113
0000a0 07 80 4d be 24 fc 34 3d 45 c6 ff be af b4 e8 bd
       -0.2006837 0.044185773 -0.49955955 -0.11362588
0000b0 de 9f 68 3e a7 5c 8d bf a1 55 97 3f c7 64 7c 3e
       0.22717234 -1.10439 1.1823007 0.24647819
0000c0 ad 8c 06 bf 8d 57 a1 be 5a 97 f9 bd bf b0 9e bf
       -0.52558404 -0.31512108 -0.12187071 -1.2397689
0000d0 d9 cf 81 bf 51 e8 1f be 83 d8 23 3f 88 73 15 3f
       -1.0141555 -0.15615965 0.64002246 0.5837941
0000e0 80 16 bc bb 36 ec 87 3f 2b fe 17 be 49 83 17 3d
       -0.005739987 1.0618961 -0.14843051 0.036990438
0000f0 8a 58 16 bf ae 5d b6 bf da e0 41 3b af 54 89 3e
       -0.5872885 -1.4247339 0.0029583485 0.2682242
000100 74 ab a8 bf 3a 72 24 3f 45 23 de be 54 d1 a3 bf
       -1.3177323 0.64236796 -0.43386284 -1.2798257
000110 79 c0 24 be 37 45 1e bf 0c 7a ad bf c9 7c d2 be
       -0.16089047 -0.61824363 -1.3552871 -0.4111083
000120 a1 3c 45 bf 96 2d cb bf 7e fe 6a bd 49 d7 4b bf
       -0.7704564 -1.5873287 -0.05737161 -0.79625374
000130 bd 23 be bf 0c 43 a0 3b f7 7e 87 bf 9b 9b c7 bf
       -1.4854656 0.004890805 -1.0585622 -1.5594362
000140 fd 15 88 be d7 e5 74 3f b0 f7 7e 3f b7 f3 aa 3d
       -0.26579276 0.9566321 0.9959669 0.08347266
000150 8a 00 72 bf b9 60 9f bf b1 e7 4f be fd b5 25 bf
       -0.9453207 -1.2451392 -0.20303227 -0.6473082
000160 ed 73 99 bf 04 a4 02 bf d1 9b 46 bf a2 f0 b6 bf
       -1.1988503 -0.5103152 -0.77581507 -1.4292185
000170 e8 57 59 be 06 65 01 be e9 ae b5 3f 2d 6c 9e be
       -0.2122494 -0.12636194 1.4194003 -0.30941907
000180 1a e4 41 3f f1 f8 5a bf 0c c1 38 3f 4a 70 1e bf
       0.7573868 -0.85536104 0.72169566 -0.6189009
000190 60 13 4e 3f 06 d6 82 3b d7 6c 5b 3f 3d d1 9c 3f
       0.80498314 0.0039927987 0.8571295 1.2251354
0001a0 4d 2c 4d 3d 89 c9 3d bf a5 96 9e bf 80 89 d9 bd
       0.050091077 -0.74135643 -1.2389723 -0.10621929
0001b0 aa f3 49 bf b5 d3 c1 3f ff 46 ba bd 04 99 30 bf
       -0.78887427 1.5142733 -0.09095573 -0.68983483
0001c0 45 68 cf 3f 0a 07 8e 3c d2 74 4e bf ae 76 94 3f
       1.6203696 0.01733734 -0.80647004 1.1598718
0001d0 18 7d 22 bf c9 e7 be be b5 75 87 3f 64 c9 63 3d
       -0.6347213 -0.37286213 1.0582796 0.055611983
0001e0 a0 1a 49 3f 9c d4 a5 bf 35 88 f2 be 06 e7 54 bf
       0.7855625 -1.2955508 -0.47369543 -0.83165014
0001f0 35 69 c4 3f 29 b0 97 bd 22 79 2f 3f ee 46 a9 bf
       1.5344607 -0.07406647 0.6854421 -1.3224771
000200 3a 5d 0e 3f 91 4c 6c 3f d4 e2 b2 bf 7c e8 fc bc
       0.55611 0.9230433 -1.3975472 -0.030872576
000210 40 c5 78 bf 76 33 ae bf 00 23 a9 be 75 96 3d bf
       -0.9717598 -1.3609455 -0.33034515 -0.74057704
000220 4f 52 b6 bf 29 85 60 be d9 13 7d bf d4 27 68 bf
       -1.4243869 -0.21925797 -0.9885841 -0.9068577
000230 f7 c0 9a be ce 7a 54 3f a4 f8 5a bf 64 92 dd 3e
       -0.30225345 0.82999885 -0.85535645 0.4327575
000240 39 d2 9c bf 17 37 b2 bf 39 76 ce bc ce b5 31 bd
       -1.2251655 -1.3923062 -0.025202857 -0.043386273
000250 10 77 99 bf af 8c a4 3e 66 0e 7e 3e 4e 0a 9b 3d
       -1.198946 0.32138583 0.2481018 0.07570325
000260 12 ae c8 bc b4 a6 26 3f 89 70 b2 3f c6 6d e0 3e
       -0.024497066 0.6509812 1.3940593 0.4383375
000270 3b 69 77 be 53 b0 7e bf b4 a5 91 be 4f af 90 bf
       -0.24161236 -0.994878 -0.28446734 -1.13035
000280 d4 55 36 be b0 50 92 be 1a 8e 70 3f 02 51 a2 bf
       -0.17806178 -0.28577185 0.9396683 -1.2680972
000290 57 82 dc 3c 86 62 34 bf 18 a9 8f bf 42 da 7e 3e
       0.02691762 -0.70462835 -1.1223478 0.24887946
0002a0 74 c5 76 bf 3f 55 89 3f 21 fb 3d 3e 83 4d 85 3e
       -0.9639504 1.072914 0.1855283 0.260357
0002b0 79 83 3b bf ac 55 30 bf 43 10 8c bf 31 1f 80 3f
       -0.73247486 -0.68880725 -1.0942463 1.0009519
0002c0 b0 90 fe 3e 4d 4c 27 3e cf 0b 7d 3f 33 d4 1b 3f
       0.49719763 0.163377 0.98846143 0.60870665
0002d0 0a 11 7f 3f bf 4a 5c bf 9b 96 41 3d f8 e0 83 bf
       0.99635375 -0.86051553 0.04726277 -1.030303
0002e0 9c 8e b8 bf d6 aa 24 3e 57 b7 26 bf 63 20 81 3f
       -1.4418521 0.16080794 -0.65123504 1.0088009
0002f0 97 19 85 3e c7 9e 71 bf 87 ed 81 3e 7e cd b4 3e
       0.25996086 -0.943829 0.2537653 0.35313028

layer1.bias f4 [64]
000000 0f 29 db 3e c8 ce 64 3f 6f 07 88 3e 84 4d e1 3e
       0.42804763 0.89378023 0.2656817 0.44004452
000010 fd d1 8b 3f f8 7e 95 3e 64 ae 82 3f 07 df 84 3f
       1.0923458 0.29198432 1.020947 1.0380563
000020 00 45 72 3f 8a 2d 05 3f b4 25 7d 3f 92 c8 30 be
       0.94636536 0.5202261 0.98885655 -0.17264012
000030 78 c1 86 3f 3a 1c 12 bf 10 d7 8c 3f 86 00 88 3f
       1.0527792 -0.5707432 1.1003132 1.062516
000040 f5 cc 58 3f f2 96 90 3f a3 2f 08 3f df 06 0c 3f
       0.8468774 1.1296065 0.5319769 0.54697984
000050 55 b6 d4 3e ff 0f 40 3f 15 5f 8a 3f 18 09 1d 3f
       0.41545358 0.7502441 1.0810267 0.61342
000060 d7 92 28 3f 53 c3 22 3f 7e 2a 5b 3f ef a6 f3 3e
       0.6584906 0.6357929 0.8561171 0.47588298
000070 91 9e 86 3f 49 85 f7 3e 13 ac 42 3f b2 f8 49 3d
       1.0517141 0.48343876 0.76043814 0.04930944
000080 1d 27 19 3f 21 c2 83 3f b0 9c 8f 3e a1 6e 2a 3f
       0.5982531 1.0293618 0.2804923 0.66575056
000090 bb 58 05 3f 7a 5f 56 3f 8a 3c 5e 3c 30 6a 9f 3e
       0.52088517 0.83739436 0.013564238 0.31135702
0000a0 21 11 f4 3e 6b 5c 1c 3f 33 5d 3a 3f f9 37 00 be
       0.47669318 0.6107852 0.7279846 -0.12521352
0000b0 e0 88 3b 3f df 0e 60 3f 94 73 53 3f d6 e5 2c 3f
       0.7325573 0.8752269 0.82598233 0.675382
0000c0 3b 79 8f 3f df d8 98 3f fa 7b 0b bf dd f5 04 3f
       1.1208872 1.1941184 -0.5448605 0.5193766
0000d0 fe ca 94 3f 69 fe 86 3f 97 a4 22 3f f4 eb 53 3f
       1.1624448 1.054639 0.63532394 0.8278191
0000e0 2c 74 10 3f aa 8d 69 3e 71 89 c4 3e ee a7 2b 3f
       0.56427264 0.22807947 0.3838611 0.67053115
0000f0 de 76 65 3e c4 d3 5d 3f 92 f2 17 3f 4e 52 93 3f
       0.22408625 0.86651254 0.5935451 1.1509492

layer2.weight f4 [64, 64]
000000 38 96 19 bf a6 1a 8a 3d 8b a6 a8 be 8e d6 9f be
       -0.5999484 0.06743364 -0.32939562 -0.3121838
000010 c4 d7 1b bf b4 4d 90 3e be b1 71 3e 09 88 29 3e
       -0.6087611 0.28184283 0.2360296 0.165558
000020 7b 2f f3 be bb 8f 36 3e 81 2b 43 bf 50 1c 81 3d
       -0.47497162 0.17828266 -0.76238257 0.06304228
000030 f9 c7 b8 3e fe a9 ef bd 0a a0 28 bf 48 e3 04 bf
       0.36090067 -0.11702345 -0.658692 -0.51909304
000040 6b ad 53 3e 56 77 a2 3e 42 e5 b7 be f1 58 43 be
       0.20671622 0.3173167 -0.35917097 -0.19076897
000050 dc 11 9c 3e ce 84 5c bf 90 56 68 3e 74 f0 f8 3e
       0.30482376 -0.86140144 0.22689271 0.4862095
000060 12 98 8b 3e b2 de 9a 3d f8 d3 d4 3e 03 b1 9d bd
       0.27264458 0.07562007 0.4156797 -0.07699778
000070 b5 6d a2 3e c0 14 2d 3f 01 2e c9 3e c5 c8 0b 3f
       0.31724325 0.67609787 0.3929291 0.54603225
000080 71 69 42 bf 80 7f 86 3e 05 6d ea 3c 93 35 c6 3e
       -0.7594214 0.2626915 0.028616438 0.3871275
000090 cb 7f 19 3f 75 d4 cc bd 57 a1 47 3f af 56 db be
       0.5996062 -0.100014605 0.7798056 -0.42839572
0000a0 3a a4 a5 3e 41 84 c5 3e c0 00 3f bf 5d 9e 7c ba
       0.32351857 0.38577464 -0.7461052 -0.0009636635
0000b0 af 9c 12 3f a1 8c aa 3e 2c aa eb 3e 1b af 52 bf
       0.5727033 0.33310416 0.46028268 -0.8229844
0000c0 b2 fb 6c 3d fc cb 41 bf 2e 24 b2 3d 52 42 ae be
       0.057857223 -0.7570188 0.08698307 -0.34034973
0000d0 f8 d1 00 3f 9c f3 05 3f 5d 15 1b be b2 1c 3e bf
       0.50320387 0.52324843 -0.15144868 -0.74262536
0000e0 26 f1 0b bf 1a b7 41 3f c9 57 28 bf ac a3 fc be
       -0.5466484 0.75670016 -0.6575895 -0.49343622
0000f0 2f 4a cf be db 30 9b be 38 4e 44 bf 2d fc 58 bf
       -0.40486285 -0.3031071 -0.7668185 -0.8475979
000100 97 f9 1f 3f f5 0a a6 3e 79 0b 67 3f cb 28 5c 3f
       0.6249022 0.32430235 0.9025188 0.85999745
000110 e3 e8 1b 3f fb 1a b2 bd 28 7f d3 be a0 f1 2b bd
       0.6090223 -0.08696552 -0.4130795 -0.04197848
000120 32 ef 2a 3f f3 64 a3 be f7 a4 f7 3e 90 56 47 3e
       0.66771233 -0.31912956 0.48368046 0.19466615
000130 9d c3 bc be c4 4d 3b 3d 8f f4 06 3f 7b 38 bf 3e
       -0.3686799 0.04572846 0.52716917 0.3734778
000140 5d f6 f0 be 80 95 22 bf 81 95 38 3f f1 6c 0b 3f
       -0.4706296 -0.6350937 0.72103125 0.54463106
000150 6f 58 01 bf f4 89 67 3f 26 92 50 bd 5c cf a4 be
       -0.50525564 0.90444875 -0.050920628 -0.32189453
000160 ea 89 de be 6e d7 c7 be 6e f9 86 bf 12 bf 89 3e
       -0.43464595 -0.39031547 -1.054487 0.26903588
000170 39 d7 27 bf 6a 95 06 bf a9 71 34 bf cd b0 36 bf
       -0.6556278 -0.5257174 -0.7048593 -0.71363527
000180 02 97 47 3f ba 38 70 3d eb 35 a0 3e 34 e1 08 bf
       0.77964795 0.05864785 0.31291136 -0.5346863
000190 7c 78 5d bf 65 0e 47 3e 0d 47 13 bf 39 60 4c 3e
       -0.8651197 0.19439085 -0.5753029 0.19958581
0001a0 fb 8c d3 3e 0b 00 14 bf f0 95 5c 3f 11 0f 17 3f
       0.41318497 -0.57812566 0.86166286 0.59007365
0001b0 85 2d a0 bf 5d 23 00 bf c3 ef 8c bf 02 e3 58 3f
       -1.2513891 -0.5005396 -1.101067 0.84721386
0001c0 93 31 d4 bd 1f 85 5a 3f 90 bb 4d bc 27 64 44 3f
       -0.10361018 0.85359377 -0.012556925 0.7671532
0001d0 64 53 e4 3d ad eb 4b bf 27 de 37 3f 7c 3a 19 3f
       0.11148718 -0.7965649 0.7182335 0.59854865
0001e0 5c 74 36 3f 5d 4e f8 3d 79 c4 33 3f b5 3b 33 3f
       0.712713 0.121243216 0.7022167 0.7001298
0001f0 bc 9e 1f 3f 24 30 be 3e af 9d 17 3f 50 59 e6 3e
       0.62351584 0.37146103 0.5922498 0.44990015
000200 b9 cf 4f bf b6 39 c6 3d f5 47 e6 be 21 b1 f8 be
       -0.81176335 0.09678976 -0.44976774 -0.4857264
000210 27 6f 36 bf b4 a2 d8 3e c5 cb 6a 3e ed e0 a6 3e
       -0.71263355 0.42311633 0.22929294 0.3259348
000220 89 80 2d bf 6e 70 48 3e 05 c7 6e bf d7 68 1d be
       -0.67774254 0.19574139 -0.9327243 -0.15372024
000230 64 ca fd 3e a8 5f dc 3d f6 aa 67 bf a3 7a 07 bf
       0.49568474 0.107604325 -0.9049524 -0.52921504
000240 bd aa f4 3e a3 da d5 3e 9a 68 af be 9c 74 fb bd
       0.47786513 0.4176837 -0.34259492 -0.12278101
000250 83 a0 41 3e 60 cd 75 bf 74 57 ff 3e f9 37 20 3f
       0.18908887 -0.960165 0.4987141 0.6258541
000260 2a 46 8a 3e 35 33 85 3e 29 e6 ce 3e ae be a8 3d
       0.27006656 0.2601563 0.40409973 0.08239494
000270 41 a1 a9 3e 17 d9 23 3f ef 4e ec 3e e3 89 30 3f
       0.3313084 0.6400313 0.46153972 0.689604
000280 df 96 63 bf 1e 8e 25 3e 60 f5 36 3e b9 c7 c5 3e
       -0.88902086 0.16167495 0.1786704 0.3862894
000290 64 8a 0c 3f 83 7f 80 be 73 c0 6f 3f 3d b0 16 bf
       0.5489867 -0.25097284 0.9365303 -0.5886267
0002a0 5f af 04 3f f7 e2 17 3f 78 91 5f bf e0 27 24 bd
       0.51830095 0.59330696 -0.8733134 -0.04007709
0002b0 32 37 12 3f 1f 8b d5 3e ea bf 31 3f 62 ba 67 bf
       0.5711547 0.41707703 0.6943346 -0.9051877
0002c0 aa f2 55 3e 87 0a 6e bf 64 45 30 3d cd 08 15 bf
       0.2089335 -0.92984813 0.043034926 -0.58216554
0002d0 85 2f 00 3f c9 c5 cd 3e f0 fe ac be 4f 87 3a bf
       0.5007251 0.4018996 -0.33788252 -0.72862715
0002e0 72 a1 67 bf 41 91 30 3f b9 00 1d bf a4 d2 da be
       -0.9048072 0.6897164 -0.6132923 -0.4273883
0002f0 59 30 d0 be 26 7d dc be 03 84 65 bf 3a 82 66 bf
       -0.40661886 -0.4306423 -0.8965456 -0.9004246
000300 ad 76 dc 3d cf f9 43 3c b1 0f e8 bc 80 1c fa bd
       0.10764823 0.0119614145 -0.028327795 -0.12212467
000310 b8 bd 17 bc cc 1f c0 3d 63 40 74 bd b8 4c b7 bc
       -0.009261541 0.09381065 -0.059631716 -0.02237545
000320 27 45 82 bd c4 34 f5 3b 4f 57 b0 bd f5 43 28 bd
       -0.06360846 0.007483097 -0.08610403 -0.041080434
000330 6e ff ca 3d 00 61 b7 ba 9b 49 9c 3d 31 a3 9f 3d
       0.099120006 -0.00139907 0.07631227 0.07794798
000340 4b f7 56 bd cd 18 6d bd 38 9c 59 bd 02 4a b9 bc
       -0.05248193 -0.05788498 -0.053127497 -0.022618297
000350 25 98 9b 3d 50 13 8d bd f3 c8 3a 3b b5 d5 89 bd
       0.07597379 -0.06888449 0.0028501123 -0.067302145
000360 bf 3c 7b 3d 0a 65 91 bd 3a b6 2c 3c a2 7e 85 bd
       0.06133723 -0.0709935 0.010541493 -0.06518294
000370 83 43 d5 bd 1f d4 a3 3d 1f 5e c0 bd 74 0b f0 bd
       -0.104132675 0.07999443 -0.09392952 -0.117209345
000380 e8 5b 4c 3d b4 fa 08 be 86 dc f0 bd 42 93 cc bd
       0.049892336 -0.13376886 -0.117608115 -0.09989025
000390 01 b1 c1 bd 18 08 a4 3d 2c f5 22 bd 58 0d 58 3d
       -0.09457589 0.08009356 -0.039784595 0.0527471
0003a0 37 4a c1 3b 69 ec ad bd e3 32 c3 3d 85 80 de 3d
       0.0058987397 -0.08492357 0.0953119 0.10864357
0003b0 d8 33 dd bb e6 e8 5d bd 82 30 8c 3d 03 0d 8e 3d
       -0.006750565 -0.054177187 0.0684519 0.069360755
0003c0 60 92 98 3d 91 2c d2 bb 28 5a b1 bc 51 d3 85 bd
       0.07449794 -0.006414004 -0.021649435 -0.06534446
0003d0 57 1c 82 3d 6f 59 c8 bd f4 16 08 bc bc 97 25 bd
       0.06353062 -0.09782683 -0.008306254 -0.04042791
0003e0 31 f1 ba bb c1 ed a1 bd ee 1d b6 bd 76 cf f4 bd
       -0.005705022 -0.07906676 -0.088924274 -0.119536325
0003f0 3d 75 76 3d f8 c5 c5 3d 48 eb 38 3c e6 62 f3 3b
       0.0601704 0.096569 0.011286564 0.007427561

layer2.bias f4 [64]
000000 68 ee 0a 3d a3 24 8e 3e 4d 60 4d be e7 a3 28 bd
       0.03391877 0.27762327 -0.20056267 -0.041171934
000010 59 85 82 bd e2 ac e8 bc 28 0d 82 bd 86 f3 bb 3e
       -0.0637309 -0.02840275 -0.063501656 0.3670923
000020 94 81 9e 3e 96 62 a7 bd 02 43 fa 3e b6 aa b4 3e
       0.30958235 -0.08173101 0.48879248 0.35286492
000030 54 f8 94 bd 63 5b d7 ba bf 5e 9c bd ec eb 82 3e
       -0.07273927 -0.0016430434 -0.07635259 0.2557062
000040 b0 c2 e5 3e df 9a e1 3e cc fa 97 3e e4 22 8c bd
       0.44875097 0.4406347 0.2968353 -0.06842592
000050 56 25 e0 3e d4 4a a4 3d 73 73 c2 bd 42 4b 84 bd
       0.43778485 0.08022085 -0.094946764 -0.06459667
000060 32 0b eb 3e d1 ca 9c 3e c4 9a 40 3e 6d eb ba bd
       0.4590698 0.30623487 0.18809038 -0.09126935
000070 43 24 ad 3d 33 f8 e7 3e e9 ca 84 3e 04 71 82 3e
       0.08454182 0.45306548 0.25936058 0.2547685
000080 f5 f9 b1 3e b6 7c ca 3c 79 09 e4 bc 5a 02 2f bc
       0.34761015 0.02471767 -0.027836548 -0.010681713
000090 4f 18 f2 3c 0f a0 f1 3e 86 7e fd 3e 55 3e ea 3e
       0.029552607 0.47192428 0.49510592 0.4575068
0000a0 45 99 da 3e 38 7b e2 3e 56 d6 8b 3e 87 62 f1 3e
       0.4269506 0.44234633 0.27311963 0.47145483
0000b0 98 d5 12 3f 82 36 bb 3e e5 f2 a1 3e 57 6c 84 3d
       0.5735717 0.36565024 0.31630626 0.06465977
0000c0 12 a6 d6 3e 1c 82 d1 3e 65 5e f3 3e 95 7c 52 bc
       0.41923577 0.40919578 0.47532955 -0.0128470855
0000d0 a6 51 e0 3d 8f ff 8a 3e c1 84 02 3d 4b cd 28 3d
       0.10953073 0.271481 0.031864885 0.041211408
0000e0 ea ca f4 3b ee e0 b3 3e d0 54 b3 bd 32 73 95 3e
       0.0074704783 0.35132545 -0.08756411 0.2918945
0000f0 f8 ed 4f bd 87 b5 e2 3e d2 95 15 be b7 8b de 3e
       -0.050764054 0.4427912 -0.14607933 0.4346597

layer3.weight f4 [1, 64]
000000 70 af 60 3f 7b 45 86 3f 8e c4 87 3f 47 50 a5 3d
       0.87767696 1.0489954 1.0606859 0.08071952
000010 4a 04 70 3f 32 c5 13 3d 6f 60 c6 3d d3 f5 b8 be
       0.93756545 0.036076732 0.09686362 -0.3612505
000020 2e 80 db be d7 79 f4 3c b4 a2 c8 be 53 3b b9 be
       -0.4287123 0.029843254 -0.39186633 -0.36178073
000030 7e 2b 9d 3d 61 03 a6 3d 12 0b 38 3d 0d be d2 be
       0.07674311 0.08106113 0.044932432 -0.41160622
000040 7b a3 ef be f6 c6 e7 be 63 ad f1 be b9 66 6c 3f
       -0.46804413 -0.45268983 -0.47202596 0.9234424
000050 06 8f e9 be b2 61 95 3d 36 4e b4 3c 42 4f 89 3d
       -0.4561693 0.072940245 0.02200995 0.0670457
000060 bb f3 db be 34 cc 04 bf 14 d0 95 3f 19 fb 83 3f
       -0.4295939 -0.5187409 1.1704125 1.0311004
000070 04 61 f2 3c 60 43 d5 be 35 72 f2 be 9f ec ab 3e
       0.029587276 -0.41652966 -0.47352758 0.33578965
000080 b8 63 ec be 48 5e ce 3d ca 01 98 3c b0 cd cb 3d
       -0.4616983 0.100765765 0.01855554 0.09951341
000090 1c f8 88 3c 74 d3 d2 be df 99 dc be 51 e7 d3 be
       0.01671987 -0.4117695 -0.43086144 -0.41387418
0000a0 74 64 d0 be 15 7a ba be e2 ac dd be 69 34 cb be
       -0.4070164 -0.36421266 -0.43295962 -0.39688423
0000b0 33 fa a8 be 96 f6 de be 4e 73 d7 be fd 1e 81 3d
       -0.33003387 -0.43547505 -0.42080158 0.06304739
0000c0 86 39 b4 be 9b 66 c2 be 35 65 d3 be 20 56 ce 3d
       -0.35200137 -0.37968907 -0.41288152 0.10075021
0000d0 63 1b 2e 3e 68 1c fa be e8 21 06 3d 8b de 06 bb
       0.17002635 -0.48849797 0.03274718 -0.0020579423
0000e0 f7 bb 80 3c 45 b0 d6 be 27 de e6 3d 4b 17 5e 3f
       0.015714629 -0.41931358 0.11272841 0.8675429
0000f0 36 ab db bd 85 a5 e5 be 75 2d 7a 3c b7 e5 fc be
       -0.10726015 -0.44852844 0.015269627 -0.4939401
